Dev/.dart_tool/chrome-device/Default/optimization_guide_prediction_model_downloads/9f179fed-d80d-418c-a9ad-d9cf067e9a08/model.tflite (tflite, 67216 bytes, 5 tensors)

dnn/hiddenlayer_1/bias/part_0 f4 [64]
0	0x3d4f3ec1	0.050596956
1	0xbcc07fe9	-0.023498492
2	0xbc1e083e	-0.00964552
3	0xbcd582c5	-0.026063332
4	0xbc91ea4b	-0.017811915
5	0x3d9bc5f8	0.07606119
6	0x39a2a88e	0.0003102463
7	0x3d25d97b	0.04049061
8	0x3d8eebb0	0.069785476
9	0xbd1969be	-0.03745436
10	0x3d42f29a	0.047594644
11	0x3d87119f	0.06595158
12	0x3ce7d793	0.028301036
13	0x3d28f204	0.04124643
14	0x3d980577	0.07422917
15	0xbcc69492	-0.024240766
16	0x3b3f6a99	0.0029207824
17	0xbdb67b9c	-0.08910295
18	0x3cf56d02	0.029959206
19	0x3bad2779	0.0052842465
20	0xbd8d141d	-0.06888602
21	0xbd6f24e5	-0.058384795
22	0x3da180ff	0.07885932
23	0xbbf998ca	-0.007617091
24	0x3dd734b1	0.10508097
25	0xbd31ce6e	-0.043409757
26	0xbcabd005	-0.020973215
27	0x3de99522	0.11405398
28	0x3bfb47f6	0.0076684905
29	0xbd3d7822	-0.046257146
30	0x3e04cdbd	0.12969108
31	0xbd14f350	-0.036364853
32	0x3cb0d009	0.021583574
33	0x3c874613	0.016512906
34	0x3c5002a5	0.012695943
35	0xbd949a8e	-0.072560415
36	0xbd098183	-0.033570778
37	0xbc9f9825	-0.019481728
38	0xbd1f79dc	-0.038934574
39	0xbc327a51	-0.01089342
40	0x3dd21c7e	0.10259341
41	0x3d33941c	0.04384242
42	0xbb5126f6	-0.0031914092
43	0x3ba3a9d7	0.0049946117
44	0xbd8bf7ba	-0.068343595
45	0xbc9b1338	-0.018930063
46	0x3d570ec0	0.0525043
47	0x3db161bc	0.086612195
48	0xbdcd83c2	-0.100348964
49	0xbd2ec3f9	-0.042667363
50	0xbd0a4e9d	-0.033766378
51	0xbdb6046c	-0.08887562
52	0x3d7e54a6	0.062092446
53	0xbbf8e2f9	-0.0075954166
54	0x3d740942	0.05957914
55	0xbdbd16a5	-0.09232835
56	0x3a28cd62	0.0006439296
57	0x3d9f5e39	0.077816434
58	0x3ddee897	0.10884207
59	0xbcc14a2d	-0.02359494
60	0xbb9e8030	-0.0048370585
61	0xbb1aae9a	-0.0023602606
62	0xbd9e415f	-0.07727312
63	0xbbf98b9f	-0.007615521

dnn/hiddenlayer_0/bias/part_0 f4 [128]
0	0xbbedf87c	-0.0072622877
1	0xbd0c3d81	-0.034238342
2	0x3d5b6b49	0.053569112
3	0x3dbaeb1c	0.09126875
4	0xbd99487c	-0.074845284
5	0x3d438425	0.047733445
6	0xbd662812	-0.056190558
7	0xbbbcc5bc	-0.0057608765
8	0xbcba6d65	-0.022757242
9	0x3ca46782	0.020068888
10	0x3d252582	0.040318973
11	0x3cc4a6a9	0.024005251
12	0x3c154445	0.009110515
13	0x3d7c0eb2	0.061537452
14	0x3b9b206b	0.004734089
15	0xbdbe3259	-0.09286947
16	0xbbac83ad	-0.0052647204
17	0x3dd40636	0.10352747
18	0xbca171ac	-0.019707523
19	0x3ce8b6cd	0.028407479
20	0xbced60f7	-0.0289769
21	0xbd33b45d	-0.04387318
22	0xbd76b7a9	-0.060233746
23	0x3c33f7b7	0.010984353
24	0xbd80941e	-0.06278251
25	0x3c480d12	0.012210147
26	0x3ccd595b	0.025067022
27	0x3d1eb8b7	0.038750377
28	0x3d02efe7	0.03196707
29	0x3d046db7	0.032331195
30	0xbd18b835	-0.03728505
31	0x3cea3e64	0.028594203
32	0x3d641ba1	0.05569041
33	0xbc0808f9	-0.0083029205
34	0xbd083a3b	-0.033258658
35	0xbd282bfb	-0.041057568
36	0x3da8f1f3	0.08249273
37	0xbdf9d77d	-0.12199304
38	0x3c2e6949	0.010645219
39	0x3aca4f94	0.0015435093
40	0x3bd7978b	0.0065793446
41	0xbc8aa0c2	-0.016922358
42	0xbd41bec1	-0.047301058
43	0x3ccb34fc	0.024805538
44	0x3bd810e8	0.0065938123
45	0xbbe2fcfd	-0.006927131
46	0x3c6d3750	0.01447852
47	0xbd029ddf	-0.03188884
48	0xbcac39ed	-0.021023715
49	0xbbbff462	-0.00585799
50	0x3d060a98	0.032724947
51	0xbdae4afb	-0.08510395
52	0xbd938a14	-0.07204071
53	0x3d37838f	0.0448032
54	0x3d11137a	0.035418965
55	0xbbeb6f70	-0.0071849152
56	0xbc937c58	-0.018003628
57	0xbd6c3a0b	-0.05767254
58	0x3d4ca0e1	0.049958114
59	0x3b618a59	0.0034414737
60	0x3d2e1a50	0.042505562
61	0xbbc145a5	-0.005898195
62	0x3c7ff694	0.015622754
63	0xbc29c846	-0.01036269
64	0xbcd1a59b	-0.025591662
65	0xbd1a4fb9	-0.037673686
66	0xbcc3123c	-0.023812406
67	0xbbdaf5c1	-0.006682128
68	0x3d3a2039	0.045440886
69	0xbe2ece61	-0.17070915
70	0x3d95b76f	0.07310378
71	0xbded066b	-0.1157349
72	0x3d023756	0.031791054
73	0xbd195848	-0.037437707
74	0x3dee5ceb	0.116388164
75	0xbd706736	-0.05869218
76	0xbcd137e5	-0.025539348
77	0xbc9a1cd9	-0.018812584
78	0x3cf7ea07	0.03026296
79	0xbae2f454	-0.0017315247
80	0x3b577e57	0.00328817
81	0xbc88fa08	-0.016720787
82	0x3d954e3c	0.07290313
83	0xbd5991b7	-0.05311748
84	0x3b1834c6	0.0023224815
85	0xbd358ce7	-0.044323828
86	0x3de628ff	0.11238288
87	0xbca52cd2	-0.020162974
88	0xbc9f69eb	-0.019459685
89	0x3c2f2484	0.010689858
90	0x3d3bf8aa	0.04589144
91	0xbd0f72ef	-0.03502172
92	0xbc0a43fb	-0.008439059
93	0xbc50255b	-0.012704219
94	0x3c20e251	0.009819583
95	0x3d95229a	0.0728199
96	0xbd1252dc	-0.035723552
97	0x3d861b67	0.06548195
98	0xbbb88aea	-0.005631794
99	0x3d8be409	0.06830604
100	0xbcd71ffe	-0.026260372
101	0xbc5d9e24	-0.013526473
102	0x3c3ea116	0.011635086
103	0xbcf59ae2	-0.02998108
104	0xbcad67af	-0.021167604
105	0xbc42e3ff	-0.011895179
106	0x3db65245	0.089024104
107	0x3ce5bf60	0.028045356
108	0x3d864097	0.06555288
109	0x3d45a08b	0.04824881
110	0xbda2e44f	-0.07953703
111	0x3cc252ab	0.02372106
112	0xbd6f0018	-0.0583497
113	0xbd221217	-0.039568033
114	0x3c93ba52	0.01803318
115	0xbcdb4c91	-0.026769908
116	0x3c8fd613	0.017558133
117	0x3d2b1401	0.041767124
118	0xbcf9ff4c	-0.030517243
119	0x3bcc634a	0.006237422
120	0xbdba660f	-0.091014974
121	0xbaedb132	-0.0018134473
122	0xbd6f13d6	-0.058368526
123	0x3da9ea75	0.08296672
124	0x3dc85aef	0.09782969
125	0x3d21e306	0.039523147
126	0x3d1ab66c	0.037771627
127	0x3d7afbe7	0.06127539

dnn/hiddenlayer_0/MatMul f4 [128, 12]
0	0xbe3b78b4	-0.18307763
1	0x3c8e6c63	0.017385667
2	0xbde7fda3	-0.11327674
3	0x3e3aaa29	0.18228973
4	0xbdffafdc	-0.124847144
5	0xbda34f35	-0.07974092
6	0x3e43c91c	0.19119686
7	0x3d317390	0.0433231
8	0x3c6910a2	0.014225157
9	0x3da0c716	0.07850473
10	0x3d3e9314	0.046526983
11	0xbdbcab86	-0.09212403
12	0x3c96ecc7	0.018423451
13	0x3cef2dea	0.029196698
14	0xbe4dc622	-0.20095113
15	0xbd342c9d	-0.04398786
16	0x3d9d6304	0.07684901
17	0xbe005faa	-0.12536493
18	0xbddcf0c8	-0.10788113
19	0x3d1f6adf	0.03892028
20	0xbe7983f7	-0.24366747
21	0x3ba73467	0.0051026824
22	0xbd92d6b9	-0.07169861
23	0xbde4478e	-0.111464605
24	0xbe5fe731	-0.21865536
25	0x3e042462	0.12904504
26	0xbe1788da	-0.14798298
27	0x3a971631	0.0011526999
28	0xbe246197	-0.16052853
29	0xbde5f588	-0.11228472
30	0xbda98048	-0.08276421
31	0xbd296617	-0.041357126
32	0x3d9439ef	0.072376125
33	0xbde5ba08	-0.11217123
34	0x3d60c40c	0.054874465
35	0xbe5e28f0	-0.21695304
36	0xbdcf2edd	-0.1011636
37	0xbd510d74	-0.05103822
38	0x3e50e6be	0.20400521
39	0xbdb59cb5	-0.0886778
40	0x3e176875	0.14785941
41	0xbda321e8	-0.079654515
42	0x3de58314	0.11206642
43	0xbd88c438	-0.06678051
44	0xbcbfd6b9	-0.023417817
45	0xbccc02cd	-0.02490368
46	0xbc81283a	-0.015766252
47	0xbea72436	-0.32644814
48	0xbd8cf32a	-0.06882317
49	0xbe577de6	-0.2104412
50	0x3de0dd70	0.10979736
51	0xbd08b7e9	-0.033378515
52	0x3cda8da5	0.02667887
53	0x3c8e65f9	0.017382609
54	0xbd8c603f	-0.06854295
55	0x3e5036c4	0.20333391
56	0x3e0ba803	0.1363831
57	0x3c50c959	0.0127433175
58	0xbc8906bf	-0.01672685
59	0xbcc3ebbb	-0.023916116
60	0x3d4f2682	0.050573833
61	0x3c89c72b	0.016818604
62	0x3e33a48a	0.17543235
63	0x3dc2e5f1	0.09516514
64	0x3a465d25	0.000756698
65	0x3d9173d6	0.07102172
66	0xbe5dcb31	-0.21659543
67	0x3e023509	0.12715544
68	0x3da43355	0.08017603
69	0x3e109ee6	0.14123115
70	0xbd572bf9	-0.05253217
71	0xbe81dec7	-0.25365278
72	0x3e0a83cd	0.1352684
73	0x3cd21f7a	0.025649775
74	0xbe2cc6bc	-0.16872686
75	0x3dc9cbbf	0.098533146
76	0xbdb5ec3d	-0.088829495
77	0x3e488276	0.19581017
78	0xbe461778	-0.1934489
79	0x3dcbef6f	0.09957778
80	0x3e2dd4fd	0.1697578
81	0x3e5b5175	0.21417792
82	0x3e0d1f27	0.13781415
83	0x3e3c94f2	0.18416193
84	0x3d4514b4	0.048115447
85	0xbd3875b4	-0.045034125
86	0x3e82cdcd	0.2554764
87	0x3d5a2acd	0.053263474
88	0x3dba697d	0.091021515
89	0x3e1bf9b2	0.1523197
90	0xbe266cfc	-0.16252512
91	0x3d2dbd9e	0.04241716
92	0xbd62fd9d	-0.055417646
93	0x3db7278f	0.08943092
94	0x3e4b1820	0.19833422
95	0xbd1cd70a	-0.038291015
96	0xbd805332	-0.06265868
97	0x3dae2912	0.08503927
98	0x3d9046f0	0.0704478
99	0xbdb49def	-0.08819186
100	0xbdb1cbae	-0.08681427
101	0x3e014c7f	0.12626837
102	0xbde377fd	-0.1110687
103	0x3d61fdd0	0.055173695
104	0x3e1147a7	0.1418749
105	0x3db147f9	0.08656306
106	0x3d98282f	0.074295394
107	0xbd9ddd90	-0.07708275
108	0xbe80c577	-0.25150654
109	0x3e6ed953	0.2332509
110	0x3e0229f8	0.12711322
111	0xbe2c1f09	-0.16808714
112	0xbcff8652	-0.031191979
113	0x3d298552	0.04138691
114	0x3da14fa9	0.07876522
115	0x3e301045	0.17193706
116	0xbdc52754	-0.09626642
117	0x3da5828b	0.0808154
118	0xbcdffb44	-0.027341492
119	0x3db5113c	0.08841178
120	0x3e2961e2	0.16541246
121	0x3dc8c3fc	0.09803006
122	0x3e248c80	0.16069221
123	0x3dc06f3f	0.093962185
124	0xbe178ca1	-0.1479974
125	0x3e6b1729	0.22958054
126	0xbdefb655	-0.11704699
127	0x3d0b52c7	0.03401449
128	0x3e0a34b1	0.13496663
129	0xbe26dac1	-0.16294385
130	0xbe264dc0	-0.16240597
131	0xbdd0bebd	-0.101926304
132	0x3cd1be90	0.025603563
133	0x3df22c47	0.118248515
134	0x3e355800	0.1770935
135	0x3d8f5c6b	0.07000049
136	0xbdb53c10	-0.08849347
137	0xbe553120	-0.20819521
138	0x3e4252c9	0.18976893
139	0xbc903918	-0.01760535
140	0x3e5d3342	0.21601585
141	0x3e6545c0	0.22389889
142	0x3ce550e9	0.027992683
143	0xbe0b8528	-0.13625014
144	0x3ce0764e	0.027400162
145	0xbe2575b4	-0.16158181
146	0x3e745649	0.2386104
147	0xbe3b4d31	-0.18291165
148	0x3e2f1e90	0.17101502
149	0x3e48f7af	0.19625734
150	0xbe91be1f	-0.28465363
151	0x3e4541d2	0.1926339
152	0x3d6aec14	0.057354048
153	0xbd8f4485	-0.06995491
154	0xbe01c9a1	-0.12674572
155	0xbcc5f4e9	-0.024164634
156	0xbdcc1e51	-0.0996672
157	0x3cb94713	0.022616899
158	0x3bf2e81c	0.0074129235
159	0xbe0f86dd	-0.1401629
160	0x3b100e33	0.002198112
161	0x3dfe9782	0.124312416
162	0xbdb91a7a	-0.09038253
163	0xbe0dbad1	-0.13840796
164	0x3e041ddd	0.12902017
165	0xbe512614	-0.20424682
166	0x3e4c9304	0.19977957
167	0xbded9148	-0.11599976
168	0xbdfb42b3	-0.12268581
169	0xbd83a24e	-0.064274415
170	0xbe428690	-0.18996644
171	0x3d99a296	0.07501714
172	0xbe42b238	-0.19013298
173	0x3e20ab65	0.15690382
174	0xbe20e3a0	-0.15711832
175	0xbd6657c6	-0.05623605
176	0x3daa5269	0.083165
177	0x3cd5a1f1	0.026078196
178	0x3afc2b95	0.0019239063
179	0xbe6bf370	-0.23042083
180	0xbdaeda7e	-0.08537768
181	0x3d73cae1	0.059519652
182	0xbd72ca76	-0.059275113
183	0xbe117341	-0.14204122
184	0xbb969097	-0.004594873
185	0xbe0d9c04	-0.13829046
186	0xbe222fda	-0.15838566
187	0x3e1ac21f	0.15113114
188	0xbe7b9bc6	-0.24571142
189	0xbe2b5c1b	-0.16734354
190	0xbe65253d	-0.22377487
191	0x3dad9b38	0.08476871
192	0x3c46a6d1	0.012124733
193	0x3dca3e34	0.098751456
194	0xbd8f8204	-0.070072204
195	0x3da4cd2b	0.08046945
196	0xbe50d9b4	-0.20395547
197	0xbc2578ce	-0.010099603
198	0xbdd75b09	-0.105154105
199	0xbd54aad1	-0.051920716
200	0xbd262e4e	-0.040571503
201	0x3beedfa7	0.007289845
202	0xbe53aae1	-0.20670654
203	0xbe05de67	-0.13073121
204	0xbe24f361	-0.16108467
205	0xbe2995e4	-0.16561085
206	0xbe5ab2e2	-0.21357301
207	0xbe3ab3da	-0.1823267
208	0x3db50244	0.08838323
209	0x3daa2ead	0.08309684
210	0xbdd964bd	-0.106149174
211	0xbe17764b	-0.14791219
212	0xbe63e4f4	-0.22255307
213	0x3d8be417	0.06830614
214	0x3d299c49	0.04140881
215	0xbe2814b2	-0.16414145
216	0x3d81bb77	0.06334584
217	0xbd72d325	-0.059283394
218	0xbda8feae	-0.08251701
219	0xbb8bd054	-0.004266778
220	0x3e2b69cc	0.16739577
221	0x3c49a829	0.012308159
222	0xbe657031	-0.22406079
223	0xbc4bee75	-0.012446989
224	0x3e55eace	0.20890352
225	0xbc289f66	-0.01029191
226	0xbe1ebf06	-0.15502557
227	0x3df3c824	0.11903408
228	0x3e0ab2dc	0.13544792
229	0xbdafec4d	-0.08589993
230	0xbe21300a	-0.15740982
231	0xbd2803d5	-0.04101928
232	0x3dbe83fa	0.09302516
233	0x3cb6824e	0.022278931
234	0xbd82352a	-0.063577965
235	0x3db6d5d5	0.08927504
236	0x3a6dbe9a	0.00090692344
237	0x3e3549f5	0.17703994
238	0x3e8d4343	0.2759038
239	0xbe421e86	-0.18956956
240	0x3c80d714	0.015727557
241	0x3d9dced7	0.07705467
242	0x3e0dd12b	0.13849322
243	0x3e332ef6	0.17498383
244	0x3e25f9e1	0.16208602
245	0x3e190bd2	0.14945915
246	0xbeb0d885	-0.3454019
247	0x3e370cf0	0.17876029
248	0x3c18af91	0.009319202
249	0x3e0fe61b	0.14052622
250	0x3db48426	0.08814268
251	0xbce42646	-0.027850281
252	0xbe0d67b3	-0.1380909
253	0x3e6a1d2b	0.22862689
254	0x3d906192	0.0704986
255	0xbd7f62f2	-0.06235022

dnn/hiddenlayer_1/MatMul f4 [64, 128]
0	0x3e13693a	0.1439561
1	0x3d8f4bf7	0.06996911
2	0x3d27cc76	0.040966474
3	0x3d0fa3cc	0.03506832
4	0x3db24df7	0.08706277
5	0x3db53782	0.08848478
6	0x3e3eae6e	0.18621227
7	0x3e0c68c2	0.13711837
8	0x3dfeb8a6	0.12437563
9	0xbd2fc2cf	-0.042910393
10	0xbe218f72	-0.15777376
11	0xbd8d1beb	-0.068900906
12	0xbdb57fbe	-0.088622555
13	0xbc5bf98e	-0.013426198
14	0x3d5e280e	0.054237418
15	0x3e07530b	0.13215272
16	0xbdc1e2f2	-0.094671145
17	0x3d58c478	0.052921742
18	0x3d987618	0.074443996
19	0x3d642552	0.055699654
20	0xbce168b2	-0.027515743
21	0xbdaf8f8a	-0.085723
22	0xbc12870d	-0.008943331
23	0xbdc657f9	-0.09684748
24	0x3d8bed71	0.06832398
25	0xbd99134c	-0.07474384
26	0x3e058f4e	0.13042948
27	0xbccb507b	-0.02481865
28	0x3e0e3976	0.13889107
29	0x3e04e165	0.12976606
30	0xbd644fab	-0.05574004
31	0x3d4e4419	0.05035791
32	0x3e013722	0.12618688
33	0x3b355552	0.0027669263
34	0xbd94c24c	-0.07263622
35	0xbbd66a31	-0.0065434207
36	0x3e27f1a1	0.16400768
37	0xbe05b65d	-0.13057847
38	0x3d3957cf	0.045249756
39	0x3e3013e0	0.17195082
40	0x3d217d36	0.03942605
41	0xbd529907	-0.05141547
42	0x3e210ee2	0.15728334
43	0x3cdd1dde	0.02699178
44	0xbdbeaaed	-0.09309945
45	0xbe19064c	-0.14943808
46	0x3dec084e	0.115250215
47	0x3e112afc	0.14176553
48	0xbae1f692	-0.0017239621
49	0x3e51dda6	0.20494708
50	0x3de6782b	0.11253389
51	0x3e190212	0.14942196
52	0xbdfbd74e	-0.122969255
53	0x3d39102d	0.045181442
54	0xbd4c0996	-0.04981383
55	0xbcb859a9	-0.02250369
56	0xbd00f57d	-0.031484116
57	0x3c36ff5b	0.01116928
58	0x3d20aa5e	0.039224975
59	0x3d086d2b	0.033307236
60	0xba23e517	-0.00062520936
61	0x3c69e802	0.014276506
62	0x3dc735d1	0.097270615
63	0x3e12f8a1	0.14352657
64	0xbd07195b	-0.032983165
65	0x398a6561	0.00026396944
66	0xbcd6678f	-0.026172427
67	0xbdd29681	-0.102826126
68	0x3bf81c84	0.0075717587
69	0xbd07a441	-0.03311563
70	0xbd1ea110	-0.03872782
71	0x3e16416d	0.14673395
72	0xbd3a4d0e	-0.04548364
73	0x3d99e4e1	0.07514358
74	0x3e19a8a5	0.15005739
75	0x3dbac7a1	0.091201074
76	0xbe1c9e60	-0.1529479
77	0x3db07117	0.0861532
78	0x3d159bd4	0.036525562
79	0x3d4cdf9b	0.050017934
80	0xbdfc5128	-0.12320167
81	0xbd78bac9	-0.060725007
82	0x3dbc72ec	0.09201607
83	0xbd7e5236	-0.06209012
84	0x3e03d15b	0.12872832
85	0xbde4c1e3	-0.111697935
86	0xbe0923be	-0.13392541
87	0xbe26fe0b	-0.16307847
88	0xbd9b320b	-0.07577904
89	0x3e1f7c6f	0.15574811
90	0xbcd7b514	-0.026331462
91	0xbd25cebc	-0.04048036
92	0xbe0d14c3	-0.13777451
93	0xbd38c227	-0.045107033
94	0xbdde3067	-0.10849076
95	0xbd045219	-0.032304857
96	0xbda87413	-0.082252644
97	0xbcd55469	-0.026041226
98	0x3d98c23a	0.07458921
99	0x3da943c9	0.08264882
100	0x3e32a8e1	0.17447235
101	0xbd337166	-0.043809317
102	0x3e324f87	0.1741315
103	0x3c4578ed	0.012052757
104	0x3daef9b6	0.08543722
105	0x3c827236	0.0159236
106	0xbe19e4cf	-0.1502869
107	0xbd2000b8	-0.039063185
108	0x3d1da8af	0.038490947
109	0x3e09c596	0.1345428
110	0xbd944d6a	-0.07241328
111	0x3c81ddb5	0.015852788
112	0xbdc63dff	-0.096797936
113	0x3e1c3504	0.15254599
114	0x3da2da6f	0.07951819
115	0xbe01da42	-0.12680915
116	0xbdb0bb9c	-0.08629534
117	0x3c2707e3	0.010194751
118	0xbdaa24e3	-0.08307817
119	0x3cf400f4	0.02978561
120	0x3dc47c45	0.09594015
121	0xbdf2ace0	-0.118493795
122	0xbe2759c8	-0.16342843
123	0x3af5570c	0.0018717959
124	0x3e143a71	0.14475419
125	0xbce0c97f	-0.02743983
126	0xbdc02659	-0.09382314
127	0xbe10a26a	-0.14124456
128	0x3d3f70da	0.046738483
129	0x3daae540	0.08344507
130	0x3daaf0ff	0.083467476
131	0xbd45f59b	-0.04832993
132	0xbc65d250	-0.014027193
133	0xbc906d03	-0.017630106
134	0xbe19c4c4	-0.15016466
135	0xbdc31936	-0.09526293
136	0x3d75113e	0.059830897
137	0xbc2d2f2d	-0.01057033
138	0x3d8c05b4	0.06837025
139	0xbdae9995	-0.08525387
140	0x3e14dfbe	0.14538476
141	0xbe0eb3b6	-0.13935742
142	0x3db4afe8	0.08822614
143	0x3dfa20c8	0.12213284
144	0x3e1d19a2	0.1534181
145	0x3e3009fe	0.17191312
146	0xbdc028fe	-0.09382819
147	0x3e0ec1e4	0.13941151
148	0x3e0ca821	0.13736011
149	0xbca4920a	-0.020089168
150	0xbe2351ef	-0.15949224
151	0x3e1f99ab	0.15585963
152	0xbcd6f44d	-0.026239539
153	0x3a07bbe2	0.0005177838
154	0x3e19d9b1	0.15024449
155	0x3dd1ace6	0.10238056
156	0xbcb2d3ec	-0.021829568
157	0x3e256806	0.16152963
158	0x3d894e92	0.06704439
159	0x3abf01d0	0.0014572684
160	0x3c6ed1c7	0.014576382
161	0xbd5b202c	-0.05349748
162	0xbdb95429	-0.090492554
163	0x3e2c69b2	0.16837195
164	0xbd19bcaf	-0.03753346
165	0xbd74a161	-0.059724215
166	0xb8671055	-5.5089902e-05
167	0xbe321600	-0.17391205
168	0xbe37dbbd	-0.17954917
169	0x3c81e0a5	0.01585419
170	0xbce84cfc	-0.028357022
171	0xbd052bb6	-0.03251239
172	0xbe28f4d3	-0.16499643
173	0xbd6e590a	-0.058190383
174	0x3dcba465	0.09943465
175	0x3e2ba8d9	0.16763629
176	0xbdf957ae	-0.12174927
177	0x3e29be1c	0.16576427
178	0xbdd61707	-0.10453611
179	0x3e281266	0.16413268
180	0xbd2f7cd0	-0.04284364
181	0x3d7800e7	0.060547736
182	0x3dc3093a	0.09523244
183	0x3dd654d9	0.10465402
184	0xbe02dc86	-0.12779436
185	0x3c0b7792	0.0085123945
186	0xbe207e85	-0.15673263
187	0xbe1cc717	-0.15310322
188	0xbe03c78b	-0.12869088
189	0xbded4178	-0.11584753
190	0xbe148bba	-0.14506426
191	0x3dcc344d	0.09970913
192	0xbd8c39ff	-0.068469994
193	0x3cc4e9e3	0.024037307
194	0x3c58c0dd	0.013229576
195	0x3e18a1fc	0.14905542
196	0x3d276441	0.040867094
197	0xbd54f49c	-0.05199109
198	0xbda0fdc4	-0.07860902
199	0x3d7da5d5	0.061925728
200	0x3d0f5ee3	0.0350026
201	0x3c3880ed	0.011261207
202	0xbd8b8f77	-0.06814473
203	0xbe1ab85d	-0.15109392
204	0xbd8d0809	-0.06886298
205	0x3e11060c	0.14162463
206	0x3c9c8c58	0.01910989
207	0xbd850d41	-0.064966686
208	0xbdcf219a	-0.10113831
209	0x3de1e67e	0.11030291
210	0xbd8cc3c9	-0.068732806
211	0xbcaf5e2c	-0.02140721
212	0x3d8e0a06	0.069355056
213	0x3e029e81	0.12755777
214	0xbdf384bc	-0.118905514
215	0x3d4c5481	0.049885277
216	0xbd8ca798	-0.068679035
217	0x3dfb12de	0.12259458
218	0x3d9010c9	0.070344515
219	0xbd4ac089	-0.049500022
220	0xbd99c911	-0.075090535
221	0xbe3ea743	-0.18618493
222	0xbd165977	-0.036706414
223	0xbe1c90d3	-0.15289621
224	0xbd2b9875	-0.04189344
225	0x3d28d750	0.041220963
226	0xbe00d023	-0.12579398
227	0x3dafcc77	0.085839204
228	0xbcf2025d	-0.029542143
229	0x3d938075	0.072022356
230	0xbd920130	-0.07129133
231	0xbe03d7c5	-0.12875278
232	0xbd027dd6	-0.031858288
233	0x3e0d57cd	0.13803025
234	0x3dccf04e	0.10006772
235	0x3e371388	0.17878544
236	0xbe1e0ca5	-0.15434511
237	0xbd14846c	-0.0362591
238	0x3e2565e6	0.16152152
239	0x3d805f2d	0.06268153
240	0x3cd7f5ff	0.026362417
241	0xbdeee0a6	-0.11663942
242	0xbcca0aab	-0.02466329
243	0xbcbf6250	-0.023362309
244	0xbddb3a3b	-0.10704466
245	0xbe2c1dcc	-0.16808242
246	0x3cca67fb	0.024707785
247	0xbd263ffb	-0.04058836
248	0xbe47702a	-0.19476381
249	0x3e30dda6	0.17272052
250	0x3d1e670f	0.038672503
251	0x3dda3c94	0.106560856
252	0xbd931197	-0.07181089
253	0x3c58db56	0.0132358875
254	0xbdcf9741	-0.10136271
255	0xbd1d1f77	-0.038360085

dnn/logits/MatMul f4 [1, 64]
0	0x3dffaaa1	0.12483717
1	0xbe211b48	-0.15733063
2	0xbe982f63	-0.29723653
3	0xbd2d1c6e	-0.04226344
4	0xbe262112	-0.16223553
5	0x3e9202a7	0.2851765
6	0xbde47dc1	-0.11156798
7	0x3e678c10	0.22612023
8	0x3e9957a1	0.29949668
9	0xbdb6eeed	-0.0893229
10	0x3e11661e	0.14199111
11	0x3e840484	0.25784695
12	0x3e012c7c	0.12614626
13	0x3e77848d	0.24171658
14	0x3e350c52	0.17680481
15	0xbea6f9b8	-0.32612395
16	0x3d1ccede	0.03828322
17	0xbe89c40c	-0.26907384
18	0x3ea68a35	0.3252732
19	0xbd5a7221	-0.053331498
20	0xbe8c218b	-0.2736934
21	0xbe4e1bb2	-0.20127752
22	0x3e8180a5	0.2529346
23	0x3d581d6d	0.052762438
24	0x3eb0b1dd	0.345107
25	0xbeb21f31	-0.34789422
26	0x3bfc97cd	0.0077085258
27	0x3eb7b1a2	0.3587771
28	0xbda405d6	-0.080089256
29	0xbe462c4f	-0.1935284
30	0x3ec02e22	0.37535197
31	0x3d9aeed7	0.07565086
32	0x3d5d5565	0.054036517
33	0x3d79a48e	0.060947947
34	0x3e28a224	0.16468102
35	0xbe6febe9	-0.23429836
36	0xbe544993	-0.20731191
37	0xbe2b88e2	-0.16751435
38	0xbea4091c	-0.320382
39	0xbe6c3683	-0.2306767
40	0x3eb70a0a	0.35749847
41	0x3ebca664	0.36845696
42	0x3d412e05	0.04716303
43	0x3ca4e3b9	0.020128118
44	0xbe65e74b	-0.22451513
45	0xbe8b74a3	-0.27237424
46	0x3e88f340	0.26748085
47	0x3e9e1410	0.3087468
48	0x3ea0a2f6	0.3137433
49	0xbe93457f	-0.2876396
50	0xbe9383cd	-0.28811494
51	0xbe8c2cb2	-0.2737785
52	0x3e38f531	0.18062283
53	0xbd7f4eae	-0.062330894
54	0x3dac0ecb	0.08401259
55	0xbeb2b057	-0.34900162
56	0xbe86d4ee	-0.26334327
57	0x3e5d898c	0.21634501
58	0x3eccb45a	0.39981347
59	0xbe9df238	-0.3084886
60	0xbd353222	-0.044237264
61	0x3e197759	0.14986934
62	0x3e2ec7eb	0.1706845
63	0xbe4a401f	-0.19751023
